KingdomModel.onnx (onnx, 195791 bytes, 8 tensors)

conv1.weight f4 [3, 3, 3, 3]
-0.12760705 0.05899706 -0.012927554 -0.18545948 -0.1391834 0.013970827 -0.070842974 -0.04795887
0.087064885 -0.2612711 -0.062426616 -0.23350914 -0.1361099 -0.2994567 0.14706184 -0.23165475
-0.04199675 0.024172725 -0.22231366 0.065147266 -0.089183696 -0.116011724 -0.21114346 0.06272599
-0.22166337 0.0043596025 -0.13642435 -0.041694522 -0.021588605 -0.0013138762 -0.13975243 0.08489975
-0.1528192 -0.23158322 -0.013581927 -0.09946829 -0.20431659 -0.14940956 -0.20485309 -0.061265014
-0.11493117 -0.13493243 -0.1273809 -0.06277925 -0.30932897 -0.1084122 -0.18759428 -0.125042
-0.042483147 -0.278485 -0.070687436 -0.1558506 -0.060361028 -0.11680763 -0.20892891 -0.055208005
-0.24368413 -0.08778451 -0.07844993 -0.026113525 0.057648394 -0.23748887 -0.14163452 -0.20052575
-0.15505521 -0.09301357 -0.1404023 -0.13201125 -0.32619205 0.11407888 -0.20035926 -0.12246023
-0.27770218 -0.09713142 -0.024320075 -0.12461265 -0.16620256 0.022705019 -0.12112873 -0.20976493
-0.2319764
00000000: 6cab 02be e7a6 713d 17ce 53bc 17e9 3dbe
00000010: 1886 0ebe e5e5 643c 1f16 91bd 8570 44bd
00000020: 134f b23d 53c5 85be 0db3 7fbd 051d 6fbe
00000030: 6560 0bbe 6352 99be 6197 163e e736 6dbe
00000040: c904 2cbd e105 c63c 31a6 63be ee6b 853d
00000050: f1a5 b6bd 8e97 edbd fe35 58be 7c76 803d
00000060: b9fb 62be ffda 8e3b d3b2 0bbe e0c7 2abd
00000070: 96da b0bc 5f36 acba 431b 0fbe ecdf ad3d
00000080: a37c 1cbe 2724 6dbe bb86 5ebc 08b6 cbbd
00000090: 5e38 51be d2fe 18be 02c5 51be 06f1 7abd
000000a0: 0961 ebbd ba2b 0abe 2370 02be 6892 80bd
000000b0: 5e60 9ebe 3707 debd b718 40be 030b 00be
000000c0: cf02 2ebd 9695 8ebe 93c4 90bd 4d97 1fbe
000000d0: 203d 77bd d738 efbd 76f1 55be ca21 62bd
000000e0: 5588 79be 5dc8 b3bd 5baa a0bd 08ec d5bc
000000f0: b920 6c3d 4830 73be a408 11be 9f56 4dbe
00000100: cbc6 1ebe e67d bebd 9fc5 0fbe f52d 07be
00000110: a502 a7be 30a2 e93d fa2a 4dbe 6ecc fabd
00000120: fb2e 8ebe d7ec c6bd e53a c7bc eb34 ffbd
00000130: 0131 2abe e0ff b93c 5712 f8bd 9ecc 56be
00000140: 398b 6dbe

conv1.bias f4 [3]
-0.18750694 -0.05550123 -0.021497225
00000000: d201 40be 4255 63bd f31a b0bc

conv2.weight f4 [3, 3, 3, 3]
-0.013520024 -0.08181393 -0.007823468 -0.088476054 -0.2869087 0.03958538 -0.0055064717 -0.13483319
-0.10537412 -0.07479481 -0.02764875 -0.014034647 -0.059887785 -0.15192196 -0.044917673 -0.07697865
0.011082557 0.029765442 -0.20011145 -0.31937763 -0.18662865 -0.110174865 -0.22810945 -0.30455285
-0.02946759 -0.023669176 -0.011342901 -0.06468723 -0.18875499 -0.5973418 -0.10327663 -0.08127014
-0.432706 -0.23021139 -0.15940803 -0.4560203 -0.01858513 -0.018183962 0.079963 -0.11619429
-0.019527609 -0.029527145 -0.026831664 -0.018344296 -0.19111404 -0.0056934543 0.05697391 -0.037960216
0.024152175 -0.044510514 -0.032043103 0.017836656 -0.14042537 0.055323567 -0.009967503 -0.04367907
-0.014736551 -0.026710862 -0.047878485 0.0134368315 -0.2049313 -0.07566324 0.04081662 0.016418753
-0.2423748 -0.08605925 -0.042837985 0.0839798 -0.13587889 0.048073843 -0.08400348 0.037711043
-0.009406179 -0.027706029 -0.14013135 0.016404726 -0.01904419 -0.3624894 0.034835838 0.04938615
-0.08127282
00000000: 1783 5dbc 108e a7bd 012e 00bc ef32 b5bd
00000010: b2e5 92be 4824 223d a26f b4bb b611 0abe
00000020: 63ce d7bd 052e 99bd a27f e2bc 93f1 65bc
00000030: e54c 75bd 6e91 1bbe 98fb 37bd fca6 9dbd
00000040: 9d93 353c a8d6 f33c 04ea 4cbe 7785 a3be
00000050: 951b 3fbe 5ca3 e1bd 8695 69be 5aee 9bbe
00000060: 0466 f1bc dce5 c1bc 93d7 39bc bd7a 84bd
00000070: fd48 41be 64eb 18bf b382 d3bd f670 a6bd
00000080: a48b ddbe 89bc 6bbe dc3b 23be 7e7b e9be
00000090: d83f 98bc 88f6 94bc a4c3 a33d 46f7 edbd
000000a0: 5df8 9fbc e9e2 f1bc 14ce dbbc c746 96bc
000000b0: 66b3 43be 2890 babb 7a5d 693d 2c7c 1bbd
000000c0: c8da c53c a850 36bd a13f 03bd 2e1e 923c
000000d0: abcb 0fbe f79a 623d bd4e 23bc d3e8 32bd
000000e0: 9371 71bc bdd0 dabc 3b1c 44bd 2826 5c3c
000000f0: 83d9 51be 54f5 9abd 542f 273d 9f80 863c
00000100: 1931 78be d53f b0bd e276 2fbd 9afd ab3d
00000110: d623 0bbe 14e9 443d 040a acbd e576 1a3d
00000120: 601c 1abc c1f7 e2bc 987e 0fbe 3463 863c
00000130: 9002 9cbc 3698 b9be 06b0 0e3d 2249 4a3d
00000140: 5d72 a6bd

conv2.bias f4 [3]
-0.007987912 0.060137827 -0.08764218
00000000: bbdf 02bc 1553 763d be7d b3bd

lin1.weight f4 [128, 363]
-0.041106682 0.023069972 -0.03753049 0.026678972 0.007074804 0.044566743 0.021483969 -0.04983953
-0.052696537 -0.002594376 -0.008597017 -0.022310106 -0.013237473 -0.03820019 0.008240673 -0.016605183
0.012597876 -0.056239218 0.0085811475 0.013647229 -0.0033281895 -0.03364502 0.043982428 -0.04651017
-0.05691517 -0.022326693 -0.024656283 0.013902357 0.047644094 0.020698173 0.048357487 -0.0049738707
-0.029685505 -0.05208392 0.045315612 -0.013064112 -0.032921813 -0.04657705 -0.030343272 -0.045866765
0.03062476 0.00823746 -0.047261145 -0.06735735 -0.020751758 -0.023563337 -0.010157826 -0.10242838
-0.042128757 0.03245587 -0.05816628 0.027425557 -0.088887386 -0.009514414 -0.08940575 -0.01785071
-0.047769353 -0.0009311695 -0.022287747 -0.040885743 -0.028945638 -0.071104035 0.017717933 -0.053145427
-0.02352747 -0.036534373 0.0011383073 0.0076848064 -0.029132644 -0.040122923 -0.034255072 -0.03891083
-0.0084777605 -0.03220666 -0.04700667 -0.0072150403 -0.01925261 0.034708884 0.015671298 -0.004212904
-0.09584576 0.03582466 -0.0026691668 -0.0010058591 -0.0531671 -0.07346054 -0.009615261 -0.07513152
-0.0081959795 0.016586639 -0.05114419 -0.047515314 -0.018558703 -0.0067144935 -0.0071418704 -0.016751433
-0.0037034946 -0.006741699 -0.050141133 0.025021194 0.004695716 -0.03200184 -0.033930056 -0.0006879005
0.004610527 -0.058023978 0.046780694 -0.020271737 -0.09247095 -0.03542528 0.02538568 -0.0042625787
0.022843948 0.044912133 -0.014405546 -0.0075571747 0.014911736 -0.064410634 -0.03853824 -0.032221112
-0.04407032 -0.04259467 -0.07217731 -0.07599055 -0.055114422 -0.11562975 -0.06595641 -0.10712715
0.016108599 -0.09730731 -0.08306137 -0.031054223 -0.025618475 -0.07352677 -0.050348375 -0.02323365
0.008360511 -0.07584461 -0.04880676 -0.04413575 0.008963221 -0.04016956 -0.071357906 -0.066894315
-0.057773482 -0.08855516 -0.06665395 -0.027471049 -0.05364027 -0.0544959 -0.055532143 0.0072326106
-0.017954659 -0.026040519 -0.059615012 -0.02762092 -0.10344526 0.003929704 -0.039149538 -0.014326909
-0.029893229 -0.05598405 -0.06880195 -0.0027312385 0.037055146 -0.01703567 -0.048499625 -0.04550981
-0.06715649 -0.088554375 -0.027444668 0.023787025 0.02885227 -0.033125296 -0.087509945 -0.07785846
-0.022133026 -0.09778595 0.0063560633 -0.046363227 -0.08722685 -0.041451495 0.01487338 -0.06830917
-0.0729448 0.025267916 -0.09683354 -0.13707355 -0.09229834 -0.010009505 0.017708113 -0.10351808
-0.021020534 -0.093913116 -0.047568377 -0.054725587 0.02820478 -0.049639706 -0.016300205 -0.05091308
-0.09697488 -0.02152056 -0.04362422 -0.043404765 -0.006888661 -0.0739715 -0.09819988 -0.038391847
-0.0134551115 -0.113303564 -0.06134539 -0.08786425 -0.100682095 0.09564627 -0.10166736 -0.12325455
-0.00021001148 -0.028569376 -0.05642464 -0.055494964 -0.09048374 -0.08347857 -0.06406176 -0.031674583
0.01326697 0.022251401 -0.059551504 -0.0039288 -0.09608675 0.012320048 -0.10124548 -0.17031147
-0.0028423 -0.038105447 -0.015225549 -0.03818059 -0.054202266 0.0116684055 0.05407564 0.016393825
-0.0965414 -0.05559033 0.056769084 0.01733016 -0.050085943 -1.0606063e-05 -0.05385141 0.016425567
0.007198869 -0.04065152 -0.027955767 -0.057002176 0.0070402143 0.0077573876 -0.020284826 -0.019388942
00000000: 7b5f 28bd 3dfd bc3c 92b9 19bd dc8d da3c
00000010: c2d3 e73b 9e8b 363d 26ff af3c 8924 4cbd
00000020: 53d8 57bd 6806 2abb 81da 0cbc afc3 b6bc
00000030: fce1 58bc cd77 1cbd e303 073c 9807 88bc
00000040: 5267 4e3c 185b 66bd f197 0c3c a198 5f3c
00000050: c11d 5abb 5ccf 09bd eb26 343d 7381 3ebd
00000060: e21f 69bd 78e6 b6bc f9fb c9bc b6c6 633c
00000070: 7426 433d 378f a93c 8012 463d dafb a2bb
00000080: 042f f3bc f355 55bd dd9c 393d db0a 56bc
00000090: 06d9 06bd 94c7 3ebd 7492 f8bc cade 3bbd
000000a0: c7e0 fa3c 69f6 063c e794 41bd a6f2 89bd
000000b0: 97ff a9bc e607 c1bc 036d 26bc f8c5 d1bd
000000c0: 348f 2cbd 72f0 043d c43f 6ebd 90ab e03c
000000d0: 970a b6bd 58e2 1bbc 5d1a b7bd a73b 92bc
000000e0: cca9 43bd ba19 74ba cb94 b6bc cf77 27bd
000000f0: 671f edbc fe9e 91bd 3325 913c 05af 59bd
00000100: aebc c0bc 11a5 15bd 4133 953a d4d0 fb3b
00000110: 95a7 eebc ef57 24bd 0c4f 0cbd f660 1fbd
00000120: 4ee6 0abc 21eb 03bd 118a 40bd 256c ecbb
00000130: a6b7 9dbc e72a 0e3d 1861 803c 660c 8abb
00000140: c84a c4bd e1bc 123d 30ed 2ebb 08d7 83ba
00000150: bfc5 59bd 7b72 96bd 5489 1dbc 8ede 99bd
00000160: 6e48 06bc b4e0 873c 927c 51bd 6b9f 42bd
00000170: 6c08 98bc 4105 dcbb 5a06 eabb 4d3a 89bc
00000180: 54b6 72bb 78e9 dcbb ca60 4dbd 3ff9 cc3c
00000190: 85de 993b 5d14 03bd 3efa 0abd 3954 34ba
000001a0: e713 973b 8daa 6dbd 1d9d 3f3d ea10 a6bc
000001b0: 6961 bdbd 191a 11bd a1f5 cf3c 1aad 8bbb
000001c0: 3b23 bb3c c9f5 373d 3d05 6cbc 2da2 f7bb
000001d0: 5b50 743c b9e9 83bd 46da 1dbd 49fa 03bd
000001e0: 1483 34bd c077 2ebd b3d1 93bd efa0 9bbd
000001f0: a9bf 61bd 4acf ecbd 2714 87bd 7b65 dbbd
00000200: 2ef6 833c 0e49 c7bd 141c aabd 6d65 febc
00000210: d6dd d1bc 3495 96bd 193a 4ebd 7f54 bebc
00000220: 86fa 083c 6b54 9bbd 99e9 47bd b0c7 34bd
00000230: 79da 123c d688 24bd 1824 92bd e3ff 88bd
00000240: e3a3 6cbd 685c b5bd de81 88bd f70a e1bc
00000250: e6b5 5bbd 1837 5fbd ac75 63bd 89ff ec3b
00000260: a615 93bc ed52 d5bc df2e 74bd 4545 e2bc
00000270: 1cdb d3bd bfc4 803b 445b 20bd 69bb 6abc
00000280: a5e2 f4bc 884f 65bd 09e8 8cbd 94fe 32bb
00000290: 23c7 173d 648e 8bbc 8ba7 46bd 7f68 3abd
000002a0: 5889 89bd ff5b b5bd a4d3 e0bc 02dd c23c
000002b0: 995b ec3c 64ae 07bd 6a38 b3bd 4274 9fbd
000002c0: 5250 b5bc 0044 c8bd 8646 d03b 5ee7 3dbd
000002d0: fea3 b2bd 0bc9 29bd 7aaf 733c aee5 8bbd
000002e0: 1564 95bd a9fe ce3c aa50 c6bd 025d 0cbe
000002f0: e906 bdbd e8fe 23bc 9b10 913c 4a01 d4bd
00000300: 4133 acbc 8555 c0bd 0fd7 42bd f027 60bd
00000310: b60d e73c 0153 4bbd 0288 85bc 3c8a 50bd
00000320: c49a c6bd e34b b0bc 4faf 32bd 32c9 31bd
00000330: 47ba e1bb 5f7e 97bd 051d c9bd c540 1dbd
00000340: d472 5cbc b30b e8bd 4e45 7bbd 2cf2 b3bd
00000350: 6a32 cebd 31e2 c33d fa36 d0bd e26c fcbd
00000360: 8736 5cb9 530a eabc 861d 67bd b04e 63bd
00000370: 8a4f b9bd d0f6 aabd d032 83bd 35bd 01bd
00000380: b55d 593c 9248 b63c 47ec 73bd 2abd 80bb
00000390: 21c9 c4bd 07da 493c ca59 cfbd 2166 2ebe
000003a0: e245 3abb 7514 1cbd 9574 79bc 4063 1cbd
000003b0: 3203 5ebd d72c 3f3c 6b7e 5d3d 584c 863c
000003c0: 7fb7 c5bd b0b2 63bd b386 683d fbf7 8d3c
000003d0: eb26 4dbd b2f0 31b7 4c93 5cbd e98e 863c
000003e0: 7de4 eb3b 3582 26bd 7e03 e5bc 1d7b 69bd
000003f0: 99b1 e63b af31 fe3b 5d2c a6bc 8fd5 9ebc

lin1.bias f4 [128]
-0.065888695 0.012965718 -0.055050492 -0.029929653 -0.015704546 0.20888253 -0.09302842 -0.03870021
-0.0676628 -0.037966575 -0.04963601 -0.10617637 -0.07498119 0.16838674 -0.050400015 -0.073644884
-0.030338677 -0.07387063 0.12449797 -0.019893635 0.0033673751 -0.0530403 -0.015113385 -0.025557136
-0.013983154 -0.05065947 -0.062472753 -0.053684764 -0.051297307 0.053259265 -0.0003604155 -0.015052799
-0.053700566 -0.03514787 -0.103685655 -0.048477754 -0.014934335 -0.05220955 -0.058104713 -0.03970797
0.1912055 -0.04732702 -0.025304122 -0.037018005 0.14332466 0.01655633 -0.108749166 -0.063378
9.082874e-05 -0.061190862 0.0046688863 0.30411384 0.016618667 0.1904324 -0.0386975 -0.06371079
-0.022367708 -0.0023131564 -0.008343306 -0.0044396985 -0.06650916 -0.046555657 -0.021404188 -0.018074956
-0.04404441 -0.027413944 -0.091129534 -0.0187649 -0.0047617974 -0.05329542 -0.10024393 -0.008305998
-0.07108555 -0.087531276 -0.061872736 -0.055313606 0.25407365 0.28075278 -0.01293571 -2.5130594e-05
-0.057634577 -0.082622126 -0.08159892 -0.023037188 0.23578833 -0.0626187 0.0124668 -0.1007766
-0.031599116 -0.06116366 -0.002617411 0.124154486 -0.03780627 -0.058680583 -0.09208514 0.034208074
-0.10658585 -0.061536722 -0.04605519 0.2519515 -0.08913901 -0.115188405 -0.05488457 -0.06880678
0.39117867 -0.06697075 -0.020375106 0.35926807 0.19571547 0.20043415 -0.008356301 -0.023757543
-0.011078488 -0.023746017 -0.020070454 0.2586525 -0.045021426 -0.11339498 -0.017764878 -0.08115171
-0.07590255 0.42404443 0.3867627 -0.04648658 -0.07737918 -0.06829627 -0.11487085 -0.005498184
00000000: a7f0 86bd 2a6e 543c a07c 61bd 082f f5bc
00000010: d2a6 80bc 4de5 553e af85 bebd 1d84 1ebd
00000020: cb92 8abd d782 1bbd 214f 4bbd ff72 d9bd
00000030: bd8f 99bd 936d 2c3e 3f70 4ebd 21d3 96bd
00000040: d188 f8bc 7c49 97bd cbf8 fe3d faf7 a2bc
00000050: 2eaf 5c3b c940 59bd 229e 77bc 335d d1bc
00000060: 9919 65bc 4e80 4fbd 6ee3 7fbd 8ee4 5bbd
00000070: 201d 52bd 6326 5a3d 26f6 bcb9 04a0 76bc
00000080: 20f5 5bbd 37f7 0fbd 2559 d4bd 9c90 46bd
00000090: 24af 74bc aed9 55bd 35ff 6dbd d3a4 22bd
000000a0: 60cb 433e fad9 41bd 974a cfbc 31a0 17bd
000000b0: b3c3 123e 24a1 873c e2b7 debd 53cc 81bd
000000c0: 4f7b be38 45a3 7abd 75fd 983b cfb4 9b3e
000000d0: df23 883c b600 433e 4581 1ebd cd7a 82bd
000000e0: 7c3c b7bc 5398 17bb 5db2 08bc e47a 91bb
000000f0: f435 88bd 25b1 3ebd d657 afbc ee11 94bc
00000100: e967 34bd 3593 e0bc 1fa2 babd d9b8 99bc
00000110: da08 9cbb 4c4c 5abd b14c cdbd e115 08bc
00000120: 4d95 91bd 9943 b3bd 446e 7dbd 8590 62bd
00000130: f115 823e d4be 8f3e 4df0 53bc 8acf d2b7
00000140: 3c12 6cbd ca35 a9bd 561d a7bd 7cb8 bcbc
00000150: 7f72 713e 3c3e 80bd 8d41 4c3c f663 cebd
00000160: 136e 01bd bf86 7abd df88 2bbb b544 fe3d
00000170: bfda 1abd 0d5b 70bd 2297 bcbd c41d 0c3d
00000180: af49 dabd ee0d 7cbd 5ea4 3cbd c9ff 803e
00000190: 838e b6bd e6e7 ebbd a5ce 60bd 92ea 8cbd
000001a0: 9248 c83e f627 89bd b2e9 a6bc fcf1 b73e
000001b0: a369 483e 9c3e 4d3e dee8 08bc 2e9f c2bc
000001c0: 8c82 35bc 0287 c2bc cb6a a4bc 1a6e 843e
000001d0: 6368 38bd a13b e8bd a687 91bc de32 a6bd
000001e0: cc72 9bbd 5a1c d93e c305 c63e b668 3ebd
000001f0: fa78 9ebd eade 8bbd 6941 ebbd 1c2a b4bb

lin2.weight f4 [14, 128]
0.031640053 -0.014825058 0.057541005 0.041879736 -0.01569433 -0.015853966 0.0007293504 0.008001991
-0.043489914 0.038584873 0.017420005 -0.07081107 0.035459474 -0.014750574 0.028956678 -0.028452856
0.07099212 -0.011452599 -0.011805446 -0.026640655 -0.07675543 -0.048640564 -0.008319124 0.021276299
0.030793771 0.013894752 0.03746707 -0.097636454 0.05184611 -0.12038938 0.012734601 0.032745622
-0.008902885 0.017766517 0.03443027 0.013754072 0.013400998 0.016572721 -0.06720989 0.022838263
0.22020966 0.092345715 -0.006065687 -0.03483152 -0.008225485 0.042307176 -0.00996673 -0.05028561
-0.044526055 0.03615429 -0.01728002 -0.013552868 0.038234696 -0.046425637 -0.0095007885 0.012031911
0.059271008 -0.03831391 -0.0049678986 -0.010665268 0.017430978 -0.036462147 -0.019838661 0.038107615
-0.017925385 -0.031071603 -0.03768479 0.0019264541 -0.021507626 -0.07449385 0.037879616 -0.08699019
0.0034256577 -0.049786888 -0.09061221 0.012972105 0.08583336 -0.012661563 0.047755074 -0.08635041
0.07889742 -0.0384276 -0.06080999 -0.02352108 -0.010416646 -0.012420963 0.04973749 0.04289962
-0.089652136 -0.016323084 0.059132285 -0.0061460994 -0.026497118 -0.0010905854 -0.010039706 0.010932434
0.020281306 0.000500775 -0.046231084 -0.0145029 0.005046749 0.02787316 -0.049112696 0.026715936
-0.10753419 -0.026503954 -0.0967716 -0.07120377 -0.011617317 -0.07005064 0.010916352 0.03627319
-0.059745077 0.0020292061 -0.0663518 -0.013594606 -0.07129574 -0.079193905 0.035667162 0.0049385927
0.05451521 -0.08121745 0.07109378 -0.00281426 0.07305348 -0.026041053 0.06480753 0.06631619
0.021426465 0.018874502 0.0007377727 0.014289083 0.063364655 -0.016189197 -0.039293863 0.072247185
-0.03718915 -0.06265944 0.011451445 0.049720064 -0.028451692 -0.013891488 0.024434192 0.00648643
0.04419951 0.033238087 -0.012002171 0.0553531 0.006317153 0.07182614 0.005769789 0.0072282236
-0.07895633 0.005499025 0.020403758 -0.037882697 0.037261475 0.23263255 0.00046556216 -0.08232089
0.016640227 -0.048120067 -0.0055106324 0.010859403 -0.0017782641 0.05899449 -0.008426887 -0.042439528
-0.010339991 -0.031088408 0.0059991083 0.0030409128 -0.009443909 -0.044473547 0.021906143 -0.029418197
-0.0045607192 0.00646621 0.016172295 -0.014086587 0.06361083 -0.09138719 -0.019739572 0.035211023
-0.060570877 -0.03951982 0.0018543354 0.007285628 0.037364215 -0.036479287 0.038087584 -0.09094497
-0.05224527 -0.026265617 0.006619623 0.093577676 -0.064885624 -0.07583371 -0.019941047 -0.06998473
-0.096054465 0.0020184268 -0.013342072 0.008090159 -0.010400079 -0.01202457 -0.035019774 -0.020312259
0.04527194 -0.0021962342 -0.027748406 0.001217489 -0.009850217 0.023676047 0.030541128 0.06759762
0.01328435 0.03508968 -0.06891163 -0.006580177 0.016848024 -0.066483416 -0.023039555 0.009833869
0.018365413 -0.000396408 0.04273324 0.2892565 -0.013425258 -0.004642328 0.0018044462 0.014611184
-0.0342895 -0.021607626 -0.07795338 -0.060041912 -0.011198206 -0.010217134 0.010040737 0.07181761
0.05632216 -0.038509484 -0.043479472 -0.013641033 0.019893555 -0.0015224923 -0.032328423 0.017854089
-0.07259782 -0.0015287701 -0.030917756 -0.023804776 0.08078022 -0.07790533 -0.03878756 -0.07038047
00000000: 0099 013d cde4 72bc 1eb0 6b3d 168a 2b3d
00000010: 6591 80bc 2de0 81bc e031 3f3a c81a 033c
00000020: 7b22 32bd 2c0b 1e3d 66b4 8e3c 6505 91bd
00000030: f43d 113d 64ac 71bc 8e36 ed3c f715 e9bc
00000040: 5164 913d afa3 3bbc a16b 41bc 813d dabc
00000050: f331 9dbd 543b 47bd ef4c 08bc a24b ae3c
00000060: 3843 fc3c d0a6 633c 1277 193d 9ff5 c7bd
00000070: 965c 543d b58e f6bd caa4 503c 4620 063d
00000080: 68dd 11bc 168b 913c c106 0d3d c258 613c
00000090: dc8f 5b3c 84c3 873c 57a5 89bd 4f17 bb3c
000000a0: a47e 613e c01f bd3d acc2 c6bb 7fab 0ebd
000000b0: 2fc4 06bc 4a4a 2d3d 7f4b 23bc 49f8 4dbd
000000c0: f460 36bd 8516 143d d48e 8dbc d90c 5ebc
000000d0: fc9b 1c3d cf28 3ebd 32a9 1bbc 7e21 453c
000000e0: 28c6 723d 0cef 1cbd c1c9 a2bb 60bd 2ebc
000000f0: 69cb 8e3c 5559 15bd b084 a2bc bb16 1c3d
00000100: 42d8 92bc e089 febc 5e5b 1abd 1381 fc3a
00000110: c330 b0bc 3b90 98bd a827 1b3d ea27 b2bd
00000120: 0081 603b 56ed 4bbd e592 b9bd f488 543c
00000130: 67c9 af3d 7272 4fbc d39a 433d 7cd8 b0bd
00000140: f894 a13d 4266 1dbd e513 79bd 48af c0bc
00000150: 94aa 2abc 4b81 4bbc 8ab9 4b3d 83b7 2f3d
00000160: 8a9b b7bd fdb7 85bc b234 723d 3865 c9bb
00000170: 7c10 d9bc f9f1 8eba 947d 24bc f41d 333c
00000180: fb24 a63c 7146 033a ce5c 3dbd 929d 6dbc
00000190: 335f a53b 4156 e43c 652a 49bd 61db da3c
000001a0: e33a dcbd d21e d9bc 3030 c6bd 48d3 91bd
000001b0: 8f56 3ebc b676 8fbd 80da 323c 3293 143d
000001c0: 41b7 74bd 6efc 043b 74e3 87bd e9bb 5ebc
000001d0: 8003 92bd 6a30 a2bd bb17 123d ebd3 a13b
000001e0: 574b 5f3d 5655 a6bd 9e99 913d 736f 38bb
000001f0: 109d 953d 0c54 d5bc cfb9 843d c8d0 873d
00000200: 8e86 af3c b39e 9a3c 1667 413a c21c 6a3c
00000210: 54c5 813d 359f 84bc 9af2 20bd 55f6 933d
00000220: a653 18bd 9853 80bd d79e 3b3c 44a7 4b3d
00000230: 8613 e9bc 2099 63bc 372a c83c 1e8c d43b
00000240: 8c0a 353d a924 083d c1a4 44bc efb9 623d
00000250: 1f00 cf3b 9519 933d 8010 bd3b bcda ec3b
00000260: dbb3 a1bd 2a31 b43b c825 a73c e32a 1bbd
00000270: 7d9f 183d 3a37 6e3e b216 f439 db97 a8bd
00000280: 1651 883c 8c19 45bd 8992 b4bb a3eb 313c
00000290: a414 e9ba 35a4 713d ed10 0abc 12d5 2dbd
000002a0: 1169 29bc 1ead febc 2b94 c43b 0d4a 473b
000002b0: a0ba 1abc e529 36bd 8374 b33c 6efe f0bc
000002c0: 1672 95bb 80e2 d33b c37b 843c 6ecb 66bc
000002d0: 6546 823d 3529 bbbd e2b4 a1bc 6f39 103d
000002e0: 2b19 78bd 89df 21bd 2c0d f33a 47bc ee3b
000002f0: 380b 193d 4e6b 15bd ba01 1c3d 5b41 babd
00000300: 23ff 55bd fe2a d7bc 6ce9 d83b a7a5 bf3d
00000310: c1e2 84bd b44e 9bbd 685b a3bc 2754 8fbd
00000320: 34b8 c4bd 9547 043b b598 5abc 968c 043c
00000330: 1865 2abc b402 45bc e570 0fbd e565 a6bc
00000340: 126f 393d b2ee 0fbb a050 e3bc 2794 9f3a
00000350: ce62 21bc 45f4 c13c 6331 fa3c 9f70 8a3d
00000360: 9aa6 593c 32ba 0f3d 8a21 8dbd 879e d7bb
00000370: de04 8a3c 7528 88bd 73bd bcbc 3c1e 213c
00000380: 1073 963c fbd4 cfb9 0d09 2f3d 6e19 943e
00000390: 9df5 5bbc ab1e 98bb 2b83 ec3a bf63 6f3c
000003a0: 2673 0cbd 7a02 b1bc 06a6 9fbd 82ee 75bd
000003b0: ae78 37bc c465 27bc e781 243c 1c15 933d
000003c0: 11b2 663d 1fbc 1dbd 8817 32bd a47e 5fbc
000003d0: cff7 a23c 5d8e c7ba cf6a 04bd bd42 923c
000003e0: 2aae 94bd 0361 c8ba 3c47 fdbc 3c02 c3bc
000003f0: 1a70 a53d d48c 9fbd b4df 1ebd a323 90bd

lin2.bias f4 [14]
0.05295194 0.05008194 0.065649986 0.07540037 0.064457774 0.04715432 0.094356775 0.045347173
0.08221587 0.0595451 0.049633276 0.052045055 0.1414663 0.0025999085
00000000: 22e4 583d b822 4d3d 8073 863d 826b 9a3d
00000010: 7002 843d e324 413d 203e c13d f5bd 393d
00000020: cb60 a83d 90e5 733d 434c 4b3d 322d 553d
00000030: 8bdc 103e 3a63 2a3b
